data.pth (torch, 5311 bytes, 6 tensors)

l1.weight f4 [8, 62]
0.23463461 0.61930805 -0.2705429 -0.24367645 -0.0043778424 0.55453753 -0.350713 -0.0164238
-0.29819435 -0.17790991 -0.06947548 -0.18045615 0.15570635 0.15569684 0.11735953 0.8033629
0.5142571 0.022304125 -0.018264603 -0.1911796 0.6111664 0.423693 -0.07231947 -0.17074834
0.33880687 -0.23259631 -0.18719731 0.23104134 -0.16622874 0.64342874 0.3319708 -0.20485252
0.5762461 0.056752924 0.6316368 0.036361054 0.34273633 -0.04834697 0.46405166 -0.20036027
0.636256 0.026841264 -0.02188358 -0.13287416 -0.02961592 -0.120033816 0.0011523202 -0.0032345185
0.17029049 0.44371462 0.029202037 0.7094179 0.53764474 0.6648046 0.3750875 0.6367211
-0.21243687 -0.31270185 0.03373133 -0.19377603 -0.049146686 -0.04403362 0.6579945 -0.03689381
0.5699863 0.3617278 0.57267797 -0.18182734 -0.23419237 0.3029736 0.44764656 0.34403688
0.53115946 0.26799646 -0.34119043 0.3162991 -0.32375705 -0.367603 -0.12041506 -0.12179305
0.3177638 -0.2942508 -0.31137556 -0.345942 -0.058962695 0.617704 0.39530087 0.41364715
0.5318992 0.25368717 0.2265505 -0.2198503 0.2407941 -0.18903324 -0.5629449 -0.13757126
-0.45900992 -0.248927 -0.38945767 0.63834786 -0.41117013 0.5536394 -0.1033459 -0.30457917
-0.051143464 0.25118452 0.28647456 0.37180522 -0.28907022 -0.46699548 -0.34112293 -0.18141477
0.24862857 -0.29964352 -0.14773062 0.77399033 0.61283547 -0.12886348 0.37499762 -0.10885889
-0.32739303 -0.14540873 0.32194823 0.4697072 -0.1395907 -0.035388496 0.62528235 -0.37335047
0.31224316 0.53902304 -0.5559053 0.5870219 0.551627 0.7831348 0.425645 -0.09727096
0.73543483 0.86341447 1.0129733 0.3417566 0.1877876 0.26253286 -0.07720398 -0.5558852
0.39656785 -0.06703262 0.45154536 -0.17255604 -0.006503771 -0.15310352 -0.1731888 -0.09857171
0.58050114 0.35237193 0.13415414 0.56276786 0.061139364 0.33837542 -0.5020527 -0.56370294
1.0215554 0.00034931302 0.12626524 0.5104364 0.4281462 0.415291 0.47966623 0.81580377
0.6069425 0.5713523 -0.39006156 0.5449155 0.59631497 0.16837998 0.9441474 0.60870117
0.33364633 -0.6152005 -0.11104769 0.38874778 0.21927328 0.7030119 0.39912623 0.3780902
0.49640453 0.39788523 0.044817135 -0.057741746 0.061251298 -0.05141347 0.059518754 0.06284861
0.0634063 -0.02966658 0.05275026 0.044731986 0.06096801 -0.08409746 0.037072584 -0.09984866
-0.05812396 -0.10940628 -0.06461376 -0.12629479 -0.037855268 -0.11780411 0.079933405 0.07583518
-0.045175172 -0.055583492 -0.087331615 -0.075970784 -0.09856445 -0.10655081 -0.09441369 0.04393497
-0.08744772 -0.12055381 0.040999606 -0.0892569 -0.07214766 -0.12304083 -0.066361934 -0.007015489
0.10670771 0.071736485 0.07612188 0.070339635 0.00574629 0.021201966 -0.10489038 0.08518553
-0.04489951 0.042813614 0.06682399 0.12029858 0.02259104 -0.00051782734 -0.092062145 0.019148424
0.07006912 0.059971675 0.09374015 -0.10600941 0.08913867 0.050957665 -0.02382762 -0.045235164
0.1492445 0.55411065 -0.35216793 -0.17683795 -0.6472196 -0.049648657 0.82986635 -0.27847943
00000000: 0e44 703e f98a 1e3f 9984 8abe 5286 79be
00000010: 0174 8fbb 2cf6 0d3f a890 b3be 348b 86bc
00000020: eeac 98be 042e 36be 2949 8ebd 7fc9 38be
00000030: 7c71 1f3e fe6e 1f3e 315a f03d 31a9 4d3f
00000040: 5aa6 033f 24b7 b63c a69f 95bc 96c4 43be
00000050: 6775 1c3f 4aee d83e 3b1c 94bd a7d8 2ebe
00000060: 1878 ad3e ba2d 6ebe a7b0 3fbe 1a96 6c3e
00000070: de37 2abe bfb7 243f 14f8 a93e dcc4 51be
00000080: dd84 133f c175 683d f3b2 213f 54ef 143d
00000090: 237b af3e 7907 46bd 2e98 ed3e 3e2b 4dbe
000000a0: ace1 223f 36e2 db3c 3245 b3bc 2a10 08be
000000b0: 169d f2bc 4ad4 f5bd 7309 973a 37fa 53bb
000000c0: a160 2e3e 902e e33e 1c39 ef3c 699c 353f
000000d0: 16a3 093f a230 2a3f 780b c03e 2700 233f
000000e0: 0d89 59be 751a a0be dd29 0a3d 396d 46be
000000f0: 094e 49bd 995c 34bd 5472 283f f71d 17bd
00000100: 9fea 113f 6334 b93e 069b 123f f230 3abe
00000110: 20d0 6fbe 5b1f 9b3e ee31 e53e 9a25 b03e
00000120: 11fa 073f d536 893e 83b0 aebe f5f1 a13e
00000130: 7cc3 a5be 7636 bcbe 2c9c f6bd a26e f9bd
00000140: f0b1 a23e 0aa8 96be 9e6c 9fbe 4f1f b1be
00000150: de82 71bd d921 1e3f e064 ca3e 8fc9 d33e
00000160: 8c2a 083f 49e3 813e dbfc 673e 7020 61be
00000170: bb92 763e ee91 41be 281d 10bf 7bdf 0cbe
00000180: 5903 ebbe b8e6 7ebe ff66 c7be c46a 233f
00000190: e484 d2be 50bb 0d3f 04a7 d3bd cdf1 9bbe
000001a0: cf7b 51bd 429b 803e cbac 923e 415d be3e
000001b0: 0301 94be 081a efbe aaa7 aebe cbc4 39be
000001c0: 7d98 7e3e e06a 99be b246 17be 3b24 463f
000001d0: c9e2 1c3f caf4 03be b0ff bf3e 69f1 debd
000001e0: 0fa0 a7be 07e6 14be 66d6 a43e 767d f03e
000001f0: ddf0 0ebe 87f3 10bd 8112 203f cb27 bfbe
00000200: 56de 9f3e 6afd 093f cf4f 0ebf 1147 163f
00000210: 6d37 0d3f 867b 483f 24ee d93e ff35 c7bd
00000220: 7545 3c3f bb08 5d3f 1ca9 813f b9fa ae3e
00000230: 654b 403e b56a 863e 1f1d 9ebd 7e4e 0ebf
00000240: f10a cb3e 6648 89bd f430 e73e 88b2 30be
00000250: 961d d5bb 2bc7 1cbe 6858 31be f7df c9bd
00000260: b99b 143f 186a b43e b45f 093e 8e11 103f
00000270: 456d 7a3d 8b3f ad3e 8786 00bf d64e 10bf
00000280: 54c2 823f 0024 b739 ad4b 013e f6ab 023f
00000290: fb35 db3e 06a1 d43e d096 f53e 84d8 503f
000002a0: 9560 1b3f 2544 123f 26b6 c7be 957f 0b3f
000002b0: 19a8 183f cd6b 2c3e a5b3 713f d7d3 1b3f
000002c0: b1d3 aa3e c87d 1dbf f96c e3bd f309 c73e
000002d0: 2d89 603e 96f8 333f 465a cc3e 0a95 c13e
000002e0: bc28 fe3e 9db7 cb3e 2c92 373d 9c82 6cbd
000002f0: a4e2 7a3d ee96 52bd f0c9 733d c6b6 803d
00000300: 2adb 813d 5407 f3bc a810 583d e338 373d
00000310: 98b9 793d 4a3b acbd 6cd9 173d 747d ccbd
00000320: 6413 6ebd 6610 e0bd 3854 84bd 6c53 01be
00000330: 200e 1bbd 4843 f1bd 20b4 a33d 7a4f 9b3d
00000340: 9a09 39bd 84ab 63bd ebda b2bd 9296 9bbd
00000350: 29dc c9bd 5037 dabd f75b c1bd 28f5 333d
00000360: ca17 b3bd eae4 f6bd 34ef 273d 52cc b6bd
00000370: 27c2 93bd d5fc fbbd c4e8 87bd 30e2 e5bb
00000380: 9289 da3d 94ea 923d cae5 9b3d 3a0e 903d
00000390: 604b bc3b bfaf ad3c c4d0 d6bd c075 ae3d
000003a0: 8ce8 37bd 545d 2f3d 04db 883d 1a5f f63d
000003b0: d810 b93c cebe 07ba 148b bcbd 28dd 9c3c
000003c0: 6680 8f3d dca4 753d d6fa bf3d 761b d9bd
000003d0: 568e b63d fcb8 503d 2432 c3bc 8248 39bd
000003e0: 8dd3 183e 32da 0d3f 5b4f b4be 0215 35be
000003f0: 2fb0 25bf 645c 4bbd 1f72 543f db94 8ebe

l1.bias f4 [8]
0.35918418 0.552111 0.5559303 -0.09968561 0.5819751 1.0805624 0.8819813 0.27616146
00000000: fde6 b73e 2657 0d3f 7351 0e3f f827 ccbd
00000010: 52fc 143f de4f 8a3f 87c9 613f 0965 8d3e

l2.weight f4 [8, 8]
-0.10803297 1.0410758 0.9537705 -0.034800876 -0.883284 -0.15288424 0.97963935 -0.3245667
1.1134384 0.0016413892 -0.7178746 0.23825854 0.19322091 0.4895391 0.616199 -0.17660834
-0.58669966 -0.29937097 0.3889332 0.27794012 1.0884368 0.72019565 -0.6997346 0.11730422
1.2071568 -0.42730686 0.97900206 0.08794746 0.4821791 0.17903297 -0.054699373 1.113564
-0.95173615 0.6524712 0.8824045 -0.08028032 -1.1187487 0.44864443 0.23933218 -0.32287967
-0.14087069 1.027516 -0.55855465 0.13249427 0.7357964 -0.0609563 1.1036974 0.8798472
-0.12596439 -0.3528196 0.24353792 -0.035000686 0.202103 1.3193662 0.056179278 -1.2659239
0.79726446 -0.8005947 0.80134946 -0.023540566 0.78652966 0.46913144 0.16311412 1.1939907
00000000: 6440 ddbd f941 853f 4e2a 743f 5d8b 0ebd
00000010: e61e 62bf b08d 1cbe a5c9 7a3f 9b2d a6be
00000020: 2685 8e3f e223 d73a a1c6 37bf 0cfa 733e
00000030: b4db 453e dea4 fa3e 38bf 1d3f d1d8 34be
00000040: f331 16bf 2747 99be 4122 c73e 2b4e 8e3e
00000050: e651 8b3f be5e 383f cf21 33bf 323d f03d
00000060: 1d84 9a3f f7c7 dabe e19f 7a3f cc1d b43d
00000070: 2ee0 f63e 6b54 373e 730c 60bd 4489 8e3f
00000080: fba4 73bf 5a08 273f 43e5 613f 026a a4bd
00000090: 2833 8fbf b9b4 e53e 7f13 753e 7c50 a5be
000000a0: 6840 10be a585 833f 70fd 0ebf 94ac 073e
000000b0: 275d 3c3f 50ad 79bd f545 8d3f ab3d 613f
000000c0: cffc 00be c5a4 b4be 0162 793e e15c 0fbd
000000d0: 17f4 4e3e fee0 a83f 3e1c 663d cb09 a2bf
000000e0: 8619 4c3f c6f3 4cbf 3d25 4d3f 25d8 c0bc
000000f0: 025a 493f ff31 f03e 6307 273e b0d4 983f

l2.bias f4 [8]
0.7476527 0.9837203 0.32754028 -0.27594966 0.3590789 0.6563144 0.9534826 -0.45657682
00000000: 2b66 3f3f 18d5 7b3f 5cb3 a73e 4649 8dbe
00000010: 31d9 b73e 3804 283f 7017 743f 70c4 e9be

l3.weight f4 [8, 8]
-0.8101288 -0.9320305 0.8090884 0.46086615 -0.98081636 -0.8423078 0.048907142 0.26893568
0.058044672 0.33757854 -1.3026016 0.5525382 -0.59238017 -0.801323 0.14520884 0.1452191
-1.2527608 0.06850028 -0.4290371 0.54780656 -0.83019656 0.16428685 -0.80436325 0.4865704
-1.0154526 0.7003158 0.6093393 -0.5802504 -1.1548411 0.03999729 0.951647 -0.65912396
0.5457535 0.7552668 -1.2969579 -1.5904766 0.51982903 0.36071664 0.5466643 -1.4780716
0.09079683 -0.9244061 0.0546701 -0.2851079 0.6785739 -0.8735794 0.5238976 -0.21451011
0.6170677 -1.113042 -0.6411481 0.061339285 0.6292399 0.32451874 -0.9916079 -0.62652
0.13806714 0.55584437 -1.4684142 -0.11415235 -1.5577729 0.7972986 -1.0167987 -0.08179506
00000000: 9a64 4fbf 8d99 6ebf 6b20 4f3f a6f6 eb3e
00000010: c816 7bbf 7ca1 57bf db52 483d f0b1 893e
00000020: 40c0 6d3d 18d7 ac3e a6bb a6bf 2573 0d3f
00000030: 3aa6 17bf 8123 4dbf a0b1 143e 51b4 143e
00000040: 775a a0bf e049 8c3d c0aa dbbe 0d3d 0c3f
00000050: c387 54bf d03a 283e c0ea 4dbf c11f f93e
00000060: 5afa 81bf e547 333f a9fd 1b3f 4a8b 14bf
00000070: d5d1 93bf 33d4 233d 239f 733f 59bc 28bf
00000080: 80b6 0b3f 2a59 413f b702 a6bf bd94 cbbf
00000090: 8413 053f daaf b83e 31f2 0b3f 7331 bdbf
000000a0: b0f3 b93d e1a5 6cbf c1ed 5f3d aaf9 91be
000000b0: 05b7 2d3f e6a2 5fbf 271e 063f 8aa8 5bbe
000000c0: 26f8 1d3f 2978 8ebf 4822 24bf e73e 7b3d
000000d0: de15 213f 5227 a63e 04da 7dbf 9d63 20bf
000000e0: 7961 0d3e d14b 0e3f fff4 bbbf b5c8 e9bd
000000f0: 1a65 c7bf c31b 4c3f 7626 82bf 2b84 a7bd

l3.bias f4 [8]
-0.14073244 0.18366355 -0.3596781 0.18106844 0.0608461 -0.2129407 -0.38672206 0.017287461
00000000: 2a1c 10be 4c12 3c3e ba27 b8be 016a 393e
00000010: c339 793d 200d 5abe 6f00 c6be 6f9e 8d3c
